saved models/gru.model.pth (torch, 917547 bytes, 11 tensors)

embedding.weight f4 [63, 50]
00000000: ff56 88bf c298 e4be 3dc6 b93e f7f7 813e
00000010: c810 373d 4022 babe 5b18 b9be 6fa8 253f
00000020: 40b2 dabd 2d14 03c0 8794 4d3f d663 1bbf
00000030: 2e95 e53d fcbd ee3d 7292 d2bd ba34 4dbd
00000040: f3b9 dabf 871b 3bbf 58aa 39bf a942 a5bf
00000050: 5e5e 0f3f 6257 c33f 6988 a4bc 3ac3 3d3e
00000060: aacc 49bf 17f8 b3bf 9956 c5bf c6ce 493f
00000070: d56b 7d3e de78 273f 6e82 02bf 80e4 5bbf
00000080: 2a63 d83c 13da 3cbf a908 053e 1f9d 31be
00000090: 3013 c13f 97c7 62bf 8ed2 643f fe8c 10be
000000a0: 0525 a8bd 1f66 2d3d 72ec f73e bcc9 8bbe
000000b0: e834 b03d eef8 883f 9270 ebbe 1274 74bf
000000c0: 101e 303f e829 273f 5b34 be3f c73c cf3f
000000d0: 5bd8 a83e 2536 ee3f 3d15 23bf cbbd 53be
000000e0: 9133 c6be fb74 d53f 6ffa 323f adba dcbf
000000f0: 26f2 80bf da4f 633f 3a15 363f c647 0fbf
00000100: 338b 173f af0e 923e aaca 6a3f bcc1 08c0
00000110: a561 193f 8933 bbbf c78d 8dbf b8cb 06c0
00000120: 9ebb 35bf a83c aebf 3c9b a6be 0150 da3d
00000130: 32f7 11bf fa1b 3dbf b9fc aebc 72b0 1bbf
00000140: e172 e7be 3eab e83f 0df7 ffbe e6ab 1fbf
00000150: 85c5 d8bd e125 3fbf 1a0a b5bf c518 c8bf
00000160: 5c38 d0be 1f8f 1abd 5629 193f 2397 62be
00000170: 0e0d 0b3f 8cd1 e7be fd09 403f c60a cfbb
00000180: e305 053f 112b 9e3f ef97 5f3f 5ac6 c4bd
00000190: f75f 383f e06e c2bd 8d5c 06bf 0eca 983e
000001a0: e1d6 ed3f 198e 053f 595d 31bf cb8e 233f
000001b0: 1069 4e3f 831a 8bbf 0d4e f33e 6216 bc3e
000001c0: a5b1 2d3e 8974 803f 3c88 03c0 06db 02be
000001d0: 46a5 80bf 5cbb e13f 5f7f 433f ba9a 6c3e
000001e0: aff0 ee3e 6291 d6be cb74 3c3f 6934 92bf
000001f0: 8655 45c0 9d8f 7bbf fa39 2140 7087 423e
00000200: a498 bdbf 3c88 f3be c5b6 f6bf 0131 bebe
00000210: d9c0 91bf 10eb a0bf 7424 b63d 0e5f 893f
00000220: e7b3 0cbf 8963 0b3e f55c 33be 0d0e 233e
00000230: dd75 90bf 4991 66bf 3a5a ba3f 7775 03c0
00000240: 73db f0be 6d35 b2bf 729c 0a3f ddbf d43e
00000250: 42df 2ebf 4bf2 7d3f e0e0 813f 782f 093f
00000260: 1b30 313f 10c6 a8bf 52c5 d03e e985 b4be
00000270: 8b61 93bf 909d ee3f 2a3f 2b3e 0777 1bbd
00000280: 9187 00bd 0af2 bd3f b0bd 7b3f 5ef5 94be
00000290: d955 963e eb10 003f 5308 5cbf 6ddf 0ebf
000002a0: ef65 f1bf fc41 6abf d5a4 18c0 bb26 b1bf
000002b0: 37e0 1b3f 21f1 e63f d310 9abf 172d cf3f
000002c0: bdbd f1be d4e1 833f e35c 98bf 54d0 2140
000002d0: 20df a63e 9c89 833e f03a 70be 21ef fdbf
000002e0: bc0f da3d 4a5c efbe 8b0e 92bf a99f c8bf
000002f0: b6dc 5cbf a842 91bf b47b a5be 571e 503f
00000300: 0385 833f 0aa5 9b3f 4fae 0cc0 7ad4 893f
00000310: f15c 83bf 4d79 1cbe 5633 f73e ebc2 d43e
00000320: 9510 b43e 2904 69bf 7aba 54bd f478 fb3e
00000330: b578 0bbe d61c 993f 7e78 cd3f 7559 19c0
00000340: df03 13bd d6a5 ae3e eeb9 2fbf bc34 3dbf
00000350: 4eca c1bf eae2 7f3d 5c4a 5f3f 1858 58be
00000360: a728 2fbf 5d67 3f3f 2642 b8bf f847 053b
00000370: 7c7a c83f 3fc5 9fbe 8fd6 6fbf 836d bebf
00000380: d578 8a3f 1a7c ce3f 2e94 533f ea99 9cbf
00000390: a35a 3bbf c139 c73e fb7b c0be 5001 643e
000003a0: daaa 38bf a998 e43f cfeb 84bf da36 403f
000003b0: 813d d2be 5ec6 f93e e375 8ebd 1675 553f
000003c0: 5962 ba3f 21e9 4f3f a6ff 903e a9c3 18c0
000003d0: f544 573f 5847 cbbc cfbe 6c3f 3527 c93e
000003e0: 3c05 50bf cb61 0f3f 408f 0f3f b05b 92bd
000003f0: d766 31be 3784 0ac0 3fe3 b2be 3ba5 89be
-1.0651549 -0.44647795 0.36284056 0.25384495 0.04469374 -0.36354256 -0.36151394 0.64710134
-0.1067853 -2.0481064 0.8030476 -0.6069921 0.112100944 0.116573304 -0.102818385 -0.050099112
-1.7087997 -0.7308888 -0.7252555 -1.2910968 0.5600337 1.5261042 -0.020084577 0.18531504
-0.7882792 -1.4060086 -1.5417053 0.78831136 0.24748166 0.65418804 -0.5098027 -0.8589554
0.026414473 -0.73770255 0.12991585 -0.17345093 1.508398 -0.885858 0.8938378 -0.14116284
-0.08210186 0.04233372 0.4842258 -0.2730235 0.08603841 1.0700967 -0.45984322 -0.9548961
0.6879587 0.6529832 1.4859728 1.6190423 0.32977566 1.8610274 -0.6370428 -0.20677869
-0.38711217 1.6676325 0.6991338 -1.7244469 -1.0073898 0.8879372 0.7112614 -0.5596889
0.59196776 0.28526828 0.9171549 -2.1368246 0.5991462 -1.4625102 -1.1058892 -2.106184
-0.70989406 -1.3612261 -0.3254031 0.10659791 -0.57017815 -0.73870814 -0.021360742 -0.6081611
-0.45204833 1.8177259 -0.49993172 -0.6237167 -0.10584549 -0.74667174 -1.4143708 -1.5632559
-0.40668 -0.037734147 0.598287 -0.22127967 0.54316795 -0.4527706 0.7501524 -0.006318423
0.5196211 1.2356893 0.8734121 -0.09608145 0.7202143 -0.09493804 -0.5248497 0.29841655
1.8581201 0.5216995 -0.6928306 0.6388976 0.8062906 -1.0867466 0.47520486 0.36735827
0.16962297 1.0035564 -2.05519 -0.12778863 -1.0050437 1.7635303 0.7636623 0.23105898
0.46668002 -0.41907793 0.7361571 -1.1422244 -3.083345 -0.9826601 2.5191636 0.18996978
-1.4812207 -0.47564876 -1.9274527 -0.37146762 -1.1386977 -1.2571735 0.08893672 1.0732133
-0.5496201 0.13612188 -0.17515929 0.15923329 -1.1285969 -0.9006544 1.4558785 -2.0540445
-0.47042426 -1.3922554 0.54144967 0.4155263 -0.68309414 0.99197835 1.0146751 0.53588057
0.6921403 -1.3185444 0.40775543 -0.35258415 -1.1514143 1.8641834 0.16723314 -0.03795531
-0.031379286 1.483949 0.98336315 -0.2909345 0.29362372 0.50025815 -0.859502 -0.5580967
-1.8859233 -0.91506934 -2.3850605 -1.3839945 0.60889 1.8042337 -1.2036384 1.6185635
-0.4721507 1.0303292 -1.1903347 2.5283403 0.32592106 0.25690925 -0.23459983 -1.9838601
0.10647532 -0.46750098 -1.1410688 -1.5673724 -0.8627428 -1.1348467 -0.3232094 0.81296295
1.0274967 1.2159741 -2.198139 1.0767968 -1.0262738 -0.15280648 0.48281354 0.4155496
0.351689 -0.9102197 -0.05193565 0.49115717 -0.13620265 1.1961925 1.6052396 -2.396085
-0.035892364 0.34110898 -0.6864308 -0.7390859 -1.5139863 0.06247226 0.8722284 -0.21127355
-0.68421406 0.74767095 -1.4395187 0.0020337086 1.5662379 -0.31205174 -0.93686765 -1.487717
1.0818125 1.6131623 0.8264798 -1.2234471 -0.73185176 0.3891125 -0.3759459 0.22266126
-0.721357 1.7859088 -1.0384463 0.75083697 -0.4106255 0.48784155 -0.06956079 0.83381784
1.4561263 0.812151 0.28320044 -2.3869421 0.84089595 -0.024814293 0.9247865 0.39287725
-0.8125799 0.56008595 0.5607796 -0.07146394 -0.17324387 -2.1643198 -0.34939 -0.26883873

lstm.weight_ih_l0 f4 [512, 50]
00000000: d8b4 703e 9010 70be 57ce 8abe fc31 4fbe
00000010: 8c1f 0a3e 0bde 4cbe 1ed7 963c 1d88 0c3e
00000020: e2a7 f1bc ad69 f53d 9397 a8be 080f bd3c
00000030: 4245 0d3d c964 b33d ba61 eabd 8403 803d
00000040: 96b2 a1ba 8e3f 57be db61 6abe 3d22 a8bd
00000050: d5b5 14be 90a1 523e 28ab 24bd f6d8 023e
00000060: 2057 d23d 3767 f83d 8897 d23d 737c 6b3d
00000070: 1500 d23c c627 83bc 83d9 983d 96a1 303e
00000080: d205 0a3e 783e 16bc 5456 a93a c9fd 3cbd
00000090: 0973 0abe 0a61 b83c aee2 83bd a309 893c
000000a0: 33f6 463c 024d 953d 80ee 1f3c 028a 3f3e
000000b0: e085 d9bd a5c2 3a3e 8fca 28be 1e42 2bbe
000000c0: ba29 f9bd 6c7a fc3d 4068 8abe c898 3dbe
000000d0: 7ea3 173d fc5c e7bd 82d2 2e3d 98c6 24be
000000e0: 4b2e c8bd 2901 96bd 7840 a43d 33fc aebd
000000f0: 8b0e 303d 6700 78be 5cc2 053c ef39 263e
00000100: 6529 99bd 7808 523e fcc1 533d 55e3 9f3c
00000110: 390e 403e 46fb 78be b86b 3f3e 3f84 093e
00000120: a953 2cbe 0166 32bd 0426 f23c 067d b8bd
00000130: 4ab1 0d3d 7cab aa3d abc9 cbbd b43d b93d
00000140: 4695 ca3d 9abb 173d feb8 a13d 8c8c 3d3b
00000150: 5cb3 1fbd 2850 0b3e 3a40 563e 9efe c8bd
00000160: bc4d f23d 77f4 d2bd 2df7 28bc ddb0 163e
00000170: 4c95 19bd 3bf4 643c 1055 a43e 4c58 003d
00000180: 60e8 6abd a353 a8be 74d1 413c 42f6 67bc
00000190: 1ca4 c53d bdcc 3c3d bc9a 7e3e 423a d1bb
000001a0: 9989 ed3d 3bf9 a83e f546 e7bd 5ed8 0dbd
000001b0: c2ad c1bd a878 de3b 8fca 0e3e 5da3 9f3e
000001c0: 6360 ebbb 7d50 acbc cc29 b73d ae31 033e
000001d0: e460 65bd a985 563d 6ede 53bc 16ed 843d
000001e0: 6eb9 cebd 90dd f53c 968e 61bd 540c 413d
000001f0: 2335 483e 4353 553e 7bbb b8bd ce8b 3b3e
00000200: 684b 74bc 8167 f33c cc2e 433b 9681 af3d
00000210: 539a bd3d 2d59 fd39 826c aabe 8d67 933d
00000220: daf9 283d 08c1 9cbd bb29 d4bd 1ecc 133e
00000230: b501 b93c eacc 483e d3c1 07be 7b1f 81be
00000240: 1886 e5bd 997e d8bd f9de 9c3d 6c2e 313e
00000250: a297 773e 4c78 8e3d ab6b 8dbc f6b3 e53d
00000260: db42 283d 5868 4bbc 91d2 6bbe 5759 e93b
00000270: ff07 e93c 1fea 3ebe 5049 6fbd f408 d13d
00000280: 30f3 6e3d fbcd 9ebd ad66 42bc 5eb3 45be
00000290: 5ee6 26bb fa83 12be 0b99 05bd 1b98 6a39
000002a0: bdad 3bbd 6a27 753e 96e0 a7bd 49b1 7fbc
000002b0: 95c3 1b3d d57e 3a3d 8305 68bb f751 4a3d
000002c0: 3360 0a3c 84f5 ebbd 71f6 1f3e d13e 8abd
000002d0: 9d6a cf3b 76d2 b93c 4ae3 da3c bb22 bb3d
000002e0: 9635 813b e572 94bc 7288 193d 44e2 c0bd
000002f0: c14a fb3d d57b 47bd a24c 28be 80df 0b3d
00000300: 24c0 85bd 8bfb 053e 8add 07be 927d babc
00000310: 8309 46bc 457e ba3c 6d46 08be 3810 febd
00000320: 41eb 31be 060a d13c 11da c93d 86b1 663d
00000330: 833b 2f3d 0a2b a53d 898c 683d bb83 18bd
00000340: 79c4 693d 71bc 0f3e b942 a13e 64ab 043e
00000350: 414c 38be fa5b 4b3d 7b48 47be 673f c3bd
00000360: fdf9 cfbd a053 b13d fda4 4a3e a1cd 0b3d
00000370: 09c3 dcbd ff45 033e a6a1 5c3c 5eb5 3cbd
00000380: bdcc dd3a 0a56 72bd f2e6 6dbd 0e9b 723d
00000390: c31e 953d 5e42 7c3c 842b a6be 32eb fbbd
000003a0: fc06 39be f6f4 41bd 32e1 f93c a7be a53d
000003b0: 8bc6 be3d b6c6 2bbd 4193 973d d031 71be
000003c0: 2ff9 803d 647b 18be ced9 5b3d ff6b 533d
000003d0: 7ee9 28bd c74a 213e 3f3a 08ba d6b7 323d
000003e0: 426e 883d 71ec 93bc 58d1 f33d 58d7 5f3e
000003f0: 15fb e93d 8f47 e8bd 7693 69bc 0ad6 9ebd
0.23506486 -0.23443818 -0.2711055 -0.20233911 0.13488597 -0.20006578 0.018413123 0.13723798
-0.029498998 0.11983047 -0.32928142 0.023078457 0.034489878 0.087594576 -0.11444421 0.062506706
-0.0012336548 -0.21020338 -0.22888891 -0.082096554 -0.14522488 0.20569444 -0.04020229 0.12778077
0.10270524 0.12129062 0.102828085 0.05749173 0.025634805 -0.016010176 0.07463362 0.1724914
0.13478783 -0.009170167 0.0012919405 -0.046140466 -0.13520445 0.02250721 -0.0643972 0.016728228
0.012143659 0.07290079 0.009761453 0.1870499 -0.10621238 0.18238313 -0.1648352 -0.1672444
-0.12166162 0.123280376 -0.2703266 -0.18515313 0.037021153 -0.11297032 0.042681225 -0.16091383
-0.09774455 -0.0732444 0.08020109 -0.08544197 0.04298262 -0.24218903 0.008164015 0.16233037
-0.074785985 0.20511043 0.05169867 0.01951758 0.18755426 -0.24314603 0.18693435 0.13429354
-0.16828789 -0.04355431 0.029559143 -0.09008221 0.034592904 0.08333489 -0.099505745 0.09044972
0.09891753 0.037044145 0.078966126 0.0028922884 -0.03898941 0.13604796 0.20922938 -0.098141894
0.11831233 -0.10300534 -0.010312838 0.14715905 -0.037495896 0.013974245 0.32096148 0.031334206
-0.057350516 -0.3287631 0.011829723 -0.0141578335 0.09650442 0.04609369 0.24863714 -0.0063851187
0.1159851 0.33002648 -0.11292831 -0.034630172 -0.0945697 0.0067892857 0.13944457 0.31179324
-0.007183121 -0.021034474 0.08943519 0.1281192 -0.056000605 0.052373562 -0.012931449 0.06490533
-0.10093962 0.030012876 -0.05506762 0.047130898 0.1955152 0.20832543 -0.09020134 0.1831505
-0.014910556 0.02971244 0.0029782532 0.085696384 0.09257951 0.00048322362 -0.3328591 0.07197485
0.041253902 -0.07654005 -0.10359522 0.14433333 0.022583822 0.19609419 -0.13257532 -0.2521933
-0.11207217 -0.105710216 0.07659716 0.17302865 0.24178937 0.069565386 -0.017263254 0.112159654
0.041079383 -0.012415014 -0.23029543 0.007121246 0.028446196 -0.18643998 -0.058419526 0.10206786
0.05833739 -0.077541314 -0.0118653 -0.19306704 -0.00254669 -0.14308158 -0.032616656 0.00022372643
-0.045819987 0.23940817 -0.08197133 -0.015606233 0.03802832 0.045531113 -0.0035403676 0.049394574
0.008445787 -0.11521438 0.15621354 -0.067502625 0.006329848 0.022683363 0.026719708 0.09137484
0.0039431555 -0.018121192 0.03748364 -0.09418157 0.122701176 -0.04870208 -0.16435483 0.034148693
-0.065307885 0.13084237 -0.13268104 -0.022764955 -0.012087229 0.022765288 -0.13308115 -0.12405437
-0.17374898 0.025517475 0.09856046 0.056321643 0.042781364 0.0806485 0.05677465 -0.037235003
0.057072137 0.14036728 0.31496218 0.12956005 -0.17997839 0.049648263 -0.19461243 -0.095335774
-0.10155103 0.08658528 0.197895 0.03413165 -0.107793875 0.1281967 0.013466274 -0.046071403
0.0016921979 -0.059164084 -0.058081575 0.059229903 0.07281258 0.015396683 -0.32455075 -0.12300719
-0.1806907 -0.047352754 0.03050289 0.08093005 0.09315213 -0.041937552 0.07401133 -0.23554158
0.06297528 -0.1489082 0.05367451 0.051616665 -0.0412383 0.15751182 -0.00051966676 0.04363235
0.06661655 -0.01805708 0.119051635 0.21859491 0.11424843 -0.11341774 -0.014256349 -0.077556685

lstm.weight_hh_l0 f4 [512, 128]
00000000: a0af 7ebd 5e67 c33d 78d8 a5be 1b3a 923e
00000010: e16a 57bc 4e7e 353e 316b 76be 32cb 89be
00000020: 120c 8dbe 5600 97bd b89c 99bd 5ae9 20be
00000030: 7b0a 90be e471 ce3d a8ea 47be 2498 98be
00000040: 7a93 08be 3688 a83d b4dc f73d c44a 923d
00000050: c3a0 6bbc 2d4c 303e eb31 083e 2b1c 87be
00000060: f239 91bd 9830 c93d dc16 39be f1e2 013d
00000070: 1456 d73e 9bdb a33d f9da c13d a6ef 473e
00000080: a338 80be e6a4 e83c 73dc 4c3e 19c2 fe3d
00000090: 214d 5fbd 9d05 e2bc 6859 333e e37f 20bc
000000a0: 7b0e e2bd 06bf 003e 74b6 23be 1847 a3be
000000b0: 9284 cbbe cc96 323e 8d71 24bf 5c75 38bd
000000c0: 8f32 36bd cddd afbe 942e 70bd 12c0 e6bd
000000d0: a0b7 b23e 4c33 99be ba31 43bb da96 f4bd
000000e0: 5d54 643e bd99 763e a52c cfbd 7294 1d3d
000000f0: 3a8f 843d 4abd 663d 6553 b3bd ac76 17be
00000100: 3e05 88be 0dbd 0a3e 8d04 0bbd e7f4 bbb9
00000110: 3b24 243d bf12 26bd b9df 833d 338a 00be
00000120: 0fa5 90be 884e ca3e d88e 9fbd 65aa 343e
00000130: 5dfd e83d 6fd6 323d ce8c e0bc 184c 2e3e
00000140: 8adc a33d 3dc0 3abe 7f7d 19be e1c8 acbd
00000150: a3a9 57be cbbe b23e 2c27 5e3e 802a 2a3e
00000160: 3e7c 3f3d 4b57 4abe 758e 373e 2ca4 24bc
00000170: f6d4 f3bd 95cc f23a 2698 81bd 0c56 b93e
00000180: 54c5 70be da3e 95bd e2f1 c1bd 977a 18be
00000190: 8740 65be 4a4b 0dbe 0614 7f3e 51f5 113e
000001a0: bb95 493d 38b5 acbe 28c6 8fbd 5947 723e
000001b0: b8bf e93b 77d8 c93d 2245 193d b8e1 2a3e
000001c0: 3449 0c3d a218 013d 8fe2 e83e 0766 0bbe
000001d0: 1087 133e 5c9d 29bd b920 78be b770 debe
000001e0: 274b 453e 3003 e9bd 308f 17be 7d73 ab3d
000001f0: 613a 5fbe af0d df3d e1b3 8bbd d604 cc3e
00000200: 1954 c4bd 231b 083e c991 5dbe 7587 c7bc
00000210: 0410 763e 76b6 943e 9858 583e 4896 013d
00000220: b3b8 b5bd 8f5d f53e 8b2f 6b3e 2c3d 623e
00000230: ddbb eb3d 3932 b1bc 2541 3e3e 548a 4cbe
00000240: ada7 babe 742a 26be 1de1 083e e1f1 46be
00000250: d2a3 013c 0931 24be 86c8 863e a2b2 c9be
00000260: a7f9 fabe 5fd2 78bc 28ed da3a 7c37 a73e
00000270: 40d6 96be d715 6fbe eb6f d5bc 7eb6 833e
00000280: b101 813e cd95 36be d50f 823e fb68 07bd
00000290: 5ca7 b3bd 81ff fc3e cca2 d7bd d783 00bd
000002a0: 7e30 e8be 4254 68be 78ee c03e 801f b4be
000002b0: 659e cfbe 4da6 a33d 9158 6f3d 03d7 8bbd
000002c0: b808 ef3d d6eb a23d 12d3 963e 4126 883d
000002d0: ad69 2cbd 8c95 8abd 9d95 4f3c 0a33 6abd
000002e0: 153a b13c 2348 e43d 08e4 53bd 36a0 813c
000002f0: 790e b4bc 7446 51be db95 f13e 204a 193e
00000300: 66c4 aebe 233a c93d 4d58 48be 6aec 87be
00000310: 844e 173e 5e23 3fbe f9d6 8f3c 8a42 0ebe
00000320: 28f7 f3bd ffd1 d13d 1984 7e3d 8efd 963d
00000330: eb74 fcbd e99f c9bc 76cf 86be 6ea3 efbd
00000340: 7db5 1d3e 7c50 663e fb49 57bd f5f9 3d3d
00000350: df18 193e 65a9 503e 0664 9c3d ff04 10be
00000360: 11d9 debe 6881 3a3e 9196 b73d cbeb 85bc
00000370: 9757 40be 02f5 bdbd c329 2c3e 24f0 9dbe
00000380: 0477 9a3e 7d0e 173e b67b 73be ca19 e53d
00000390: d29d 623d 6066 f8bd f77a 613e 290b b0bd
000003a0: ebcc 07bd d0f8 68bd ccc8 83be 8e30 a93e
000003b0: e489 b33d 67ab e2be 4639 d13c 1f81 a63d
000003c0: f85d 01be a064 8c3c 7a8d df3d dbb8 05be
000003d0: 00b1 a03e c447 713d ee57 07be 3085 243a
000003e0: fe7e 9fbd c581 2cbe fca3 5dbe a72a a63d
000003f0: 29e1 eabc 9de9 21bc 389a 24be d90e e0bd
-0.062179208 0.095412 -0.32391715 0.28559956 -0.0131480405 0.17723963 -0.24064328 -0.26912838
-0.2754827 -0.07373111 -0.07500595 -0.15714017 -0.28132996 0.10080317 -0.19523108 -0.29803574
-0.13337508 0.08229105 0.12102643 0.07143167 -0.01438159 0.17216559 0.13300292 -0.26388678
-0.0709113 0.09823722 -0.18075126 0.03171057 0.4205786 0.08000871 0.09465594 0.19525012
-0.2504321 0.028398942 0.2000597 0.12439365 -0.054516915 -0.027590567 0.17514575 -0.009796116
-0.11037918 0.1257287 -0.15987569 -0.31890178 -0.3974958 0.17440337 -0.64235765 -0.045033798
-0.04448181 -0.34348908 -0.05863817 -0.11267103 0.3490572 -0.2992195 -0.0029784278 -0.11942835
0.22297807 0.24082084 -0.10115937 0.038471647 0.06472631 0.056332864 -0.087561406 -0.14791363
-0.265665 0.1354868 -0.033939887 -0.00035849886 0.040073615 -0.04054522 0.06439156 -0.12552719
-0.2825093 0.3951304 -0.07790917 0.17643125 0.1137645 0.04366153 -0.02741089 0.17021215
0.08001049 -0.18237396 -0.14989279 -0.08436752 -0.21060805 0.34911188 0.2169463 0.16617775
0.046749346 -0.19759862 0.17925437 -0.010048907 -0.119058535 0.0018524105 -0.06327848 0.3619846
-0.23512775 -0.072873786 -0.094699636 -0.14890514 -0.22387896 -0.13798252 0.24909982 0.14253737
0.04921506 -0.3373201 -0.07020217 0.2366003 0.0071334504 0.098557405 0.037419446 0.16687667
0.0342495 0.031517632 0.4548535 -0.13613139 0.14406991 -0.041409835 -0.24231233 -0.4344537
0.1926695 -0.11377561 -0.14800715 0.08371637 -0.21799614 0.10891282 -0.068214186 0.3984744
-0.09586353 0.13291602 -0.21637644 -0.024356583 0.24029547 0.29045457 0.21127546 0.03163746
-0.08873119 0.47922942 0.22967355 0.22093648 0.115104415 -0.021630393 0.18579538 -0.19974643
-0.3645605 -0.16227132 0.13367124 -0.19428207 0.007912593 -0.1603433 0.26324862 -0.393941
-0.49018595 -0.015186875 0.0016702758 0.3265952 -0.29460335 -0.23348175 -0.026054343 0.25725168
0.25196603 -0.17830582 0.25402704 -0.0330591 -0.08772156 0.49413684 -0.10529098 -0.031375732
-0.45349497 -0.22688392 0.37681937 -0.35180283 -0.40550533 0.07990704 0.058434073 -0.068281196
0.11671585 0.079551384 0.2945791 0.06647921 -0.042092968 -0.06766805 0.012669948 -0.05717758
0.021634141 0.111465715 -0.05173114 0.015823465 -0.021979557 -0.20437032 0.47184643 0.14969683
-0.34134215 0.09825542 -0.19564934 -0.26547557 0.14776045 -0.18665835 0.017558562 -0.1389257
-0.11912376 0.10245132 0.062137697 0.073725805 -0.12326988 -0.024612384 -0.26330155 -0.117010936
0.15401264 0.2249164 -0.052560788 0.046380956 0.14950894 0.20377119 0.076362655 -0.14064406
-0.43524984 0.18213427 0.08964265 -0.016347786 -0.18783413 -0.09275247 0.16812806 -0.30847275
0.30168927 0.1475162 -0.2377766 0.111865595 0.05532629 -0.121289015 0.22019564 -0.08595879
-0.03315441 -0.05687791 -0.25739133 0.33044857 0.08766535 -0.44271395 0.025540005 0.08130097
-0.12633502 0.017137825 0.109156564 -0.13058798 0.3138504 0.05890633 -0.13217136 0.000627595
-0.07787894 -0.16846378 -0.21644586 0.08113604 -0.028671818 -0.009882358 -0.16074455 -0.10940332

lstm.bias_ih_l0 f4 [512]
00000000: 9bda d2bd bb3d 07be 3b5a 09bd 7117 b7bd
00000010: ec27 0fbd f895 b33d 15ff 293e 5d20 87bc
00000020: 8c9f 81be cc6c 1c3d cc78 5dbe b1d7 b1bd
00000030: 4ce0 51bd 2641 193d 1e0d 4d3e 0999 833d
00000040: bd59 3c3e 391f 60bd 95ff 2d3c 80a4 123d
00000050: dfde af3d 1173 96bb ab4b abbe cfdd 533c
00000060: 58b8 91be 42bf 743c 0178 893e db57 ecbd
00000070: 17dc 64bc e4d2 d8bd 57fb 24be 680a fb3c
00000080: 7970 4cbd c44c b0bd 1b55 91bc 3389 313d
00000090: 324d 333d ae70 aabd 4bd0 e73d 40d6 12be
000000a0: f020 06bd ad53 87bd 55d3 2dbe 4042 dc3d
000000b0: 6f7c 54bd 5244 533d 1f5a 9b3e ae30 d03b
000000c0: 0224 2dbe 7144 88bd 7a51 463e 344a 7fbd
000000d0: 4c65 e73d 10ed 2cbd 33e3 10be 4002 863d
000000e0: 972a b1bd f42f 0c3e 8a13 1f3e bdb6 843d
000000f0: a148 ab3d df4d 0fbd d2de b13d 9977 32be
00000100: fd44 4a3e e9f3 98bd a267 25be f907 69bd
00000110: 8546 62bd 650d c13d a9ca 17be 8acc 863b
00000120: 51ea cbbd 365a 5c3b ce88 8cbc a4ad 0c3d
00000130: 751e bb3c 3696 3ebe 0b64 babd 760f 79be
00000140: 89aa 7f3c 2c69 2c3e b32f 4bbd 58a8 0b3e
00000150: 3c9b 2bbd c21f 0cbe c7d0 70be 862f a23b
00000160: c07c 0abe f29a 16be db09 afbd cbb5 34be
00000170: 2520 193e 954d 02be 29b8 08be da51 2dbd
00000180: dc0b b13d d18f 21be 8249 76bd 9598 423e
00000190: da5c 52be 37a0 83bc 112c 9b3d 9dbb adbd
000001a0: 8067 583e bc5f 863d e9a3 b0bd 085e fe3d
000001b0: 6f3e 263e 8329 ed3a fc1f d63d 6551 abbd
000001c0: 22cf 3f3e f27a 1bbe 961f cabd acb9 143d
000001d0: 65c6 953d 4c87 273e ed60 c03b d2a2 9ebd
000001e0: 541b 913e 1792 49be e140 8a3e 0a82 963c
000001f0: 5691 a83d 8838 a13e 610c 3ebd c1a9 af3e
00000200: 4162 5d3c 92b5 9bbc 07e0 d03c a20f ec3d
00000210: a473 973d 7ff9 313d cdf8 833d e0f3 9b3d
00000220: 1c36 24bd b519 713e d5a9 103e 878f 1fbe
00000230: 05b5 9a3d 6871 d3bc 05d4 2b3e 21fc 45be
00000240: e56f 6cbe ee3c 183e 6fe1 923d ab66 a4bd
00000250: be45 86be d99b a43e 0ea3 3a3e a3a9 613c
00000260: 4215 933d 1ef6 0d3e ad7f dabc 4e10 d9bd
00000270: 8e56 2b3d a266 d33d 5afc 903d 944d 833d
00000280: 59aa 513a 6b49 203e ca83 0b3e 88e5 3cbd
00000290: 5643 883d 9daa bebd ad31 b3bc ae8f 353e
000002a0: 4d68 87bd 567f d73d 0ae8 1c3e da13 a03d
000002b0: 07af 213d 2f92 6ebe ad08 403d cd98 133c
000002c0: aaec 34bd ba84 d43c 7702 8dbe 923c b43c
000002d0: 4c4f 873d 1a7f 433e 6f9a 5a3e 9677 023e
000002e0: 82cb 333e ee66 53bd e075 26bd ac91 47be
000002f0: 4e9e 173e a656 283e 8ced 83bd 496a 253e
00000300: f5c3 a9bd cc7d 103e dfa6 243d dca4 013e
00000310: 4841 043d 3605 4abe 7c0f f7bd 25a3 863c
00000320: f810 853e fae3 e0bd c24c 1d3d efc4 aebd
00000330: e89a bfbb 54fb 4f3e 5bf2 123d 7a89 703e
00000340: 007e b53d 9b99 3c3e 57fb 0c3d fb6a 67bd
00000350: 06c7 8a3d 8575 77bd 7067 7bbb 3801 563e
00000360: aa0d 0abe 6057 b73d 8f8a 8bbe 915a b43e
00000370: 2d5a 7ebd 36c8 403e a865 843e 03cf f13c
00000380: c097 a1bd 8529 753e 7cc0 2dbd 8c19 07be
00000390: ef3e f93d 88d5 b53e 6bbe 4e3c de45 96bd
000003a0: 6de2 11be 327f 9dbc c88b 32bd 656c 02bd
000003b0: c2cb 0fbe 5909 993e 6b09 503d b85a a53d
000003c0: 0307 7a3e 826d f8bc 0ac1 ab3d 86ca 85bd
000003d0: 0df4 a3be b7da 39be 1dce 833e 9d54 413d
000003e0: 672b 81be 1ee0 21bd 5333 7ebe 3b7a 003e
000003f0: c89b 95bc 996e aebe 4482 d83c d7da f9bd
-0.10295602 -0.13207142 -0.033533316 -0.08940018 -0.03495018 0.08768839 0.16601212 -0.016494924
-0.25317037 0.038189694 -0.21628112 -0.08683718 -0.051239297 0.037415646 0.20024535 0.064256735
0.18393607 -0.054717276 0.010620018 0.03580141 0.08587431 -0.0045913537 -0.33456168 0.012931301
-0.28460956 0.014938178 0.26849368 -0.115401946 -0.013968489 -0.10587099 -0.16111504 0.03064461
-0.04991195 -0.08608392 -0.017740777 0.043343734 0.04377479 -0.08322273 0.113190256 -0.14339542
-0.032746255 -0.06607757 -0.16975148 0.10754824 -0.05187648 0.051578827 0.30342194 0.0063534593
-0.16908267 -0.06653679 0.19367018 -0.062326625 0.11298618 -0.042218268 -0.1414917 0.06543398
-0.086507015 0.13690168 0.15534797 0.06480167 0.08363462 -0.034986373 0.08685078 -0.17428435
0.1975288 -0.07468397 -0.16152814 -0.05689237 -0.055243034 0.09426383 -0.14823402 0.0041137384
-0.09956802 0.0033623106 -0.017155077 0.034345284 0.022841671 -0.18611988 -0.09101113 -0.24322304
0.015604624 0.16836995 -0.049606036 0.13638437 -0.04189609 -0.1368399 -0.23517142 0.004949513
-0.13524151 -0.14707544 -0.08546802 -0.17647474 0.14953668 -0.12724908 -0.13351502 -0.042314388
0.0864484 -0.15777518 -0.060128696 0.19003518 -0.20543233 -0.016067607 0.075767644 -0.0848305
0.21133232 0.06561229 -0.086250134 0.12420279 0.16234754 0.0018094036 0.10455319 -0.08365134
0.18731359 -0.15183619 -0.09869306 0.036309883 0.073132314 0.16360205 0.0058709295 -0.07745899
0.28341162 -0.19684635 0.27002624 0.018372554 0.08230846 0.31488442 -0.046398524 0.343092
0.013512195 -0.019007478 0.02549745 0.11526419 0.073951036 0.04345083 0.06443939 0.07614875
-0.040090665 0.23544963 0.14127286 -0.15582095 0.07554058 -0.025810912 0.16780098 -0.19334461
-0.2308956 0.14866993 0.07171904 -0.08027395 -0.26225084 0.32150152 0.18226263 0.013773355
0.07181789 0.13863418 -0.026672209 -0.10598813 0.04183059 0.1032231 0.07079382 0.06411281
0.0007998101 0.15653007 0.13624492 -0.046117336 0.06653468 -0.09309886 -0.021874273 0.1773059
-0.06611691 0.10522334 0.15322891 0.078162864 0.03947356 -0.23297952 0.046883274 0.0090085985
-0.044171013 0.025942195 -0.27540943 0.022001538 0.066069216 0.19091454 0.21347974 0.12740931
0.17558101 -0.051611833 -0.040639758 -0.19489163 0.14806482 0.16439304 -0.06441793 0.16153826
-0.08289329 0.14110488 0.040198203 0.12660545 0.03228882 -0.1972855 -0.120635 0.016435215
0.2598951 -0.10980983 0.03840328 -0.08533656 -0.0058473237 0.20310718 0.03587566 0.23489943
0.08861923 0.18417971 0.034419384 -0.05649851 0.06776242 -0.06041481 -0.0038361214 0.20898902
-0.13481775 0.08952212 -0.2725415 0.35225347 -0.062097717 0.18826374 0.25858808 0.029517656
-0.07890272 0.2394162 -0.042419896 -0.13193339 0.12170207 0.35514474 0.012618641 -0.07337545
-0.14246531 -0.01922569 -0.043590337 -0.031841654 -0.14042571 0.29889944 0.05079023 0.08073944
0.24416737 -0.030325655 0.08386429 -0.06532769 -0.32022133 -0.1814984 0.2574319 0.047199834
-0.25228426 -0.039520375 -0.24824266 0.12546627 -0.018262759 -0.34068754 0.026429303 -0.121999435

lstm.bias_hh_l0 f4 [512]
00000000: 56f7 38bc c99d 49be 76c6 ca3c 80e8 bdbd
00000010: 1f0d e5bd 35ca a13d 0a2f 2b3e 86b8 07bd
00000020: 769f 8fbe 39ec 32bc 5e18 33be 360a c3bd
00000030: 5a99 f33a 6cfa 073d 0803 803e 1e6f 623d
00000040: a2f5 353e e71b 09bd c9cc a6bc 4868 573d
00000050: d7ec 093e 2729 55bd a3cf 8dbe 7430 8a3b
00000060: 58d7 28be 9d4d 50bd fe7b 293e c6de 07be
00000070: 068d 68bd c6db 18be c8ee f3bd 3867 f13d
00000080: 0ff3 cd3d f1a3 f7bd a041 87bd 2214 c93d
00000090: 8413 f93d c4f9 0ebc 31d1 023d d6ff e7bd
000000a0: f34c 36be 6ddf 043c 6b32 96be b827 db3d
000000b0: 0c6c 29bb 9a04 953d 9372 5f3e c72d 90bb
000000c0: 989f a7bd 7447 83bd b86f dd3d 688e 14be
000000d0: c0ee 003d 2839 91bd cec4 2abe 22bf 2a3d
000000e0: eb55 743b 02f9 2f3d 072c 283e ce94 cc3d
000000f0: dfe4 0b3e 019b 3ebc 4ac5 b33d 5c5c 0ebe
00000100: 7924 e63d 0090 12be a594 3fbe b381 17bd
00000110: 748a 823d 86a1 0a3e 2cda f6bd 1e73 b2bc
00000120: b4f6 2bbe 9aa2 1e3b 90dc a73c f506 a7bc
00000130: 8b95 003d fb50 a5be bdd4 8e3d a83c 0dbe
00000140: bcc4 8c3d e9f6 dd3d eefd 103a d22d f13d
00000150: 4e25 4bbd 1c2a babd 829a 92be 0f21 e93c
00000160: fe0c 393c f786 ebbd facd 4d3d 6c65 25be
00000170: cdf8 443e 0429 fabd a33f 33bd 9eab 9abc
00000180: ba2e f53d b98d 2fbe 6b30 13bd 2a39 6d3e
00000190: 8e67 f4bd 1301 aa3c 3725 b83d e435 c6bd
000001a0: 4e23 983d e0d2 0abd 8736 8dbd 3998 9e3b
000001b0: 5ed2 4c3e ae03 3d3d e408 2ebc 6071 f3bb
000001c0: 60b2 773e 8bbe f3bd 47fb 9ebd c6f7 8f3d
000001d0: 1dc8 993c 72c0 9c3d f998 5fbd 9ec1 81bd
000001e0: c9a8 673e 0c76 36be 41d8 653e 5d35 96bd
000001f0: 3438 6e3d 4e9b 493e 8b35 18bd 06c2 b13e
00000200: bee9 a4bd 0ee3 973d d92a 603d 0a35 273d
00000210: 8a39 7ebd 0c91 1c3d 2127 e73c 86be 3e3d
00000220: ad0a ef3c 1791 293e cc2d 493e 325e e4bd
00000230: e9e4 dc3d b6a8 9dbd 8f28 423e 6840 24be
00000240: c00e 62be b2b3 8b3d 0892 843c 31fd 863c
00000250: 750f 4ebe 9656 a13e aa11 893e f665 103e
00000260: 8879 62bc 5651 063e 3abf 22be cc0c b0bd
00000270: 9479 843d b4ac c63d c25f ff3b d6ca 91bc
00000280: 6b45 a3bd e154 553e 9880 963c 78f9 3dbd
00000290: 9494 7b3d c04b 27be 32e3 05be 0248 ac3d
000002a0: 1110 f5bc 3e66 2f3e 5dd6 fd3d 77fe a83c
000002b0: 8225 c8bc 943f 90be e045 a73c 94c7 a4bd
000002c0: 8983 0e3c 8c17 f03d 25be 12be 3546 db3d
000002d0: 77c2 98bd 00a2 453e 7e83 cc3d f957 8c3d
000002e0: cc4c 8b3e 8eaf 02be d272 08be 4796 28be
000002f0: 0cc0 e93d ec3a 2e3d fb36 15bd 418c 6e3d
00000300: 3334 f8bd a934 133e ccee febb df05 583e
00000310: d885 733d fecc 18be 160b 09be b68a e43d
00000320: 0b22 6f3e 2efb 19be 587d 33bd 131a 8abd
00000330: 7f40 fcbd 4880 413e 927a 333d 0be5 953e
00000340: f461 613d 1435 023e b644 5e3d c9de 6bbc
00000350: 7858 92bd f7ab 573c 8af3 e9bd 64e4 af3d
00000360: 988c 35be baa9 7b3e 1cb6 4fbe 67b3 9d3e
00000370: ff4c 07be 9aac 203e fc91 bf3e c447 bf3d
00000380: 313d cabc a3e3 0e3e 6c5f cbbd b6a7 25be
00000390: 123a 1b3e bac2 583e 25b6 743c e305 903d
000003a0: 8fd2 a4bd 31cf e33b ce71 e23c 8056 5abb
000003b0: c69d 233b cbcf 823e 238c 0f3d 6576 c1bc
000003c0: 81a0 903e 8756 e8bd 6079 403d aee5 25bd
000003d0: 54d6 98be b89c 3dbe 6748 943e c4d0 d13d
000003e0: 70e3 10be 4f93 713d 16aa 7dbe 18b7 803e
000003f0: 16e9 38ba 852a cdbe 15fb 96bd d035 c2bd
-0.011289438 -0.19689097 0.024752837 -0.092728615 -0.11184143 0.07899896 0.16717163 -0.03313496
-0.28051347 -0.010920578 -0.17489764 -0.09523432 0.0018585131 0.033197805 0.25002313 0.05528175
0.17769483 -0.033473875 -0.020361321 0.052589685 0.13469253 -0.0520412 -0.27697477 0.004217202
-0.16488397 -0.050855268 0.16551206 -0.13268575 -0.056775115 -0.14927587 -0.11910778 0.117872655
0.100561254 -0.12091816 -0.06604314 0.09818293 0.121619254 -0.008726541 0.03193778 -0.11328094
-0.17802791 0.0081099095 -0.2933534 0.10700935 -0.0025851754 0.07276268 0.2182105 -0.0043999883
-0.08184737 -0.06410113 0.10812324 -0.14507449 0.03147769 -0.0709098 -0.16676638 0.041686185
0.0037282656 0.04296208 0.16423045 0.0998932 0.13661526 -0.0116336355 0.08777864 -0.1390242
0.11237425 -0.14312744 -0.18709047 -0.036988925 0.06374064 0.13538179 -0.12053332 -0.021783408
-0.16793329 0.0024205805 0.020490915 -0.02038906 0.031392615 -0.32288346 0.0697417 -0.1379267
0.068734616 0.1083811 0.00055310025 0.11776318 -0.049596123 -0.09090063 -0.28633505 0.028458146
0.0112946015 -0.11500352 0.050245263 -0.1615197 0.19235535 -0.12214854 -0.04376186 -0.018880662
0.11971803 -0.17143907 -0.035934847 0.23166338 -0.11933814 0.020752465 0.08991473 -0.096782476
0.07428609 -0.033892512 -0.06895166 0.0048399237 0.20002124 0.046146087 -0.010622237 -0.007429287
0.24189138 -0.119015776 -0.07762771 0.07029681 0.01877218 0.076538935 -0.054589245 -0.06335758
0.2262298 -0.17818469 0.22445776 -0.07334397 0.05815907 0.1968815 -0.037160438 0.3471834
-0.08052395 0.07416354 0.054728363 0.040822066 -0.062066592 0.038224265 0.0282169 0.046568416
0.029179895 0.16559254 0.19646376 -0.11150779 0.10785849 -0.07698195 0.18960784 -0.16040194
-0.22075939 0.068213835 0.016182914 0.016478153 -0.20123084 0.31511372 0.2677129 0.14101395
-0.013822921 0.13116965 -0.1589326 -0.08596191 0.06468502 0.09700909 0.0077933976 -0.017796915
-0.07972225 0.2083316 0.018371865 -0.04638049 0.061420992 -0.1633749 -0.1307495 0.08412172
-0.029914888 0.17128846 0.12394402 0.02062915 -0.024431948 -0.28173506 0.020419061 -0.08045879
0.008698353 0.11723241 -0.14330347 0.1070675 -0.07458966 0.1930008 0.09986018 0.06852717
0.2720703 -0.12762281 -0.1332505 -0.16463576 0.11413583 0.04253666 -0.036429387 0.058239225
-0.12119331 0.14375557 -0.0077799316 0.2109599 0.059453815 -0.14921948 -0.13383135 0.111592695
0.2335283 -0.15037224 -0.04382071 -0.067432545 -0.12316989 0.18896592 0.043818064 0.29276308
0.055025056 0.1271556 0.054264747 -0.014396378 -0.0714578 0.013163558 -0.114234045 0.08588484
-0.17729414 0.24576464 -0.20284313 0.30800936 -0.13212965 0.15690842 0.37416065 0.0933986
-0.024687381 0.13954024 -0.0993031 -0.16177258 0.15158871 0.21168032 0.014936005 0.07032373
-0.08047973 0.0069521894 0.027642157 -0.0033315718 0.0024965866 0.25549158 0.035045754 -0.023616025
0.28247455 -0.11344629 0.046990752 -0.040502243 -0.2985102 -0.18516815 0.2896149 0.10244897
-0.1414926 0.058978375 -0.24771914 0.2513969 -0.00070537755 -0.40071502 -0.07372109 -0.0948292

lstm.weight_ih_l1 f4 [512, 128]
00000000: d214 973d 600f 223d c3ca 093e b51c 22be
00000010: 8ee5 873d b36b 00be e08e 3b3d 3ed6 06be
00000020: 2572 5d3e 7627 963e 0072 7c3e b24b 7aba
00000030: 1aa8 f7bd b4ee 5cbd f187 8cbc d59e 3a3e
00000040: 4b20 053d 5866 9abc 2451 133e f10f 4f3e
00000050: 7231 a13d eb04 f23d d082 a03d 9ab5 203e
00000060: 8cfb 3c3e 9aef 173e f25c 6c3d b687 5f3d
00000070: 5c74 b23d 22b4 213c 7e1b e5bd d7b2 9ebd
00000080: be4a 8dbd 093f 20be 4561 c83d 4e08 253d
00000090: 7461 f73d 1c93 8d3e 346b 163e 0140 16be
000000a0: c460 a3bd b1e2 153e a274 283c 9d4e d13d
000000b0: 93f8 c13d 6618 973d c033 583c 9911 4f3d
000000c0: fe22 933d 8dae 6a3d cfed 5c3e a9c6 80bd
000000d0: 9d4d c23d c8c6 0b3d 75bc 58bb 97a2 a6ba
000000e0: 4e63 243d 82b2 27bd 78a0 283e 5799 193e
000000f0: 31f7 40bd 2867 c53e 392d 443c 8aa2 e73d
00000100: 4ab6 833d 6437 153d 0606 2c3d 8ca8 07be
00000110: 27f6 8ebd 5396 d23c f610 14bc ff26 b33d
00000120: c4e4 11bb d6d4 4a3d 88cd 0a3e d4e5 56bd
00000130: 0fd1 02bd d4a8 80bd 4e4b 2abe 4e0a bbbb
00000140: 7c0e f1bd ddf1 89be e8ca 4f3e 14bd 59bd
00000150: 0f92 223e 8937 c83e 03cc 403e 021c c8bd
00000160: d9eb 59be 91a8 533d 4748 4d3d bbdd e43c
00000170: 103d e23d 9e3e 843d ea9a c7bd 660c a03d
00000180: a229 9cbb 2f9b 5d3d c21f 123b ff80 493e
00000190: e974 f63d cffe abbd bb0a b03d 4980 82bd
000001a0: 2e83 943d 5e81 1e3e f744 193e 7d1c 0fbd
000001b0: 3561 cf3d cdf7 2c3d 271f b93d 9521 933e
000001c0: 9796 a53d 48dd 923d 953b 15be c8f4 32be
000001d0: 842d c7bd b59a a2bc b3c7 bc3d 33eb 463d
000001e0: 3fa5 833e 9cb9 503d 5ac5 a23d ceb7 39be
000001f0: b51d 463e d0e2 07bd 1582 013e cd44 88be
00000200: 41ae 563e 7f67 2c3c d3ea 893c 9d52 bbbb
00000210: 6f09 e8bd af51 eebd fdee 04be 2fa6 adbd
00000220: 39d3 b9be eaee 163d 6008 913d 1248 54be
00000230: e7c3 6f3e b412 293d 5432 053d 57db 463e
00000240: a354 49bc 96f0 203d df08 2b3e 040c 633e
00000250: 8029 a83d ea28 4dbe 283d 3abc c165 7c3d
00000260: c9e3 073d 71de cdba 518b 1fbd 776b ef3d
00000270: 9fec bc3d 3a0d fbbd 3c77 a4bd 86f2 2e3d
00000280: 057a 42bc db03 133e 59e3 0fbc eab8 63be
00000290: 76a1 bfbe 8a6a 163e 99c2 a33e 3502 443e
000002a0: 5aad a83e f1d1 333e 03c7 54be 838b 863d
000002b0: f167 0b3d 1844 09be d7b2 2cbd 4493 efbd
000002c0: 34e0 c43d 376e 41be 355f 213d 9040 8a3e
000002d0: 1587 42be 57e8 01be c1ea c7bd 5265 d9bd
000002e0: fe08 d3bd 9452 6ebe c18a e6bd e703 abbd
000002f0: 87ef bfbd 0f5d fabc b784 90bd e117 e2be
00000300: 4e7b 46be ba64 1f3e a75f d8bd b41a cebd
00000310: 5ad5 1cbe 5ce7 3d3e 21cc c3bd f868 26be
00000320: c186 edbd 447f 5fbc 0503 27be 582b 013c
00000330: 758c 3a3e d20b f0bd 38bd 83be 3678 be3e
00000340: f12b f2bd 4e9a f03d fa84 3f3e 9c32 5e3d
00000350: 8662 ebbd 22bf 9cbe 7715 993d 0d89 633d
00000360: db84 233e c485 0cbe b7f5 673d acfe 783d
00000370: b399 af3e 858e dc3d 2a99 2abe a852 03bd
00000380: 2f66 0a3b 4c06 263d eeca 8dbe 14d9 03be
00000390: a617 63bd 048f d3bc 3fff 12bd 6612 6bbd
000003a0: 2492 823e 8ed0 973c e9a0 1ebd 0036 543e
000003b0: 344f c2ba 42c4 c53e cd7f 083d 7fcf 9fbd
000003c0: a0b7 5a3d d263 f9bd acfd 8a3c b217 203e
000003d0: 74db 04be d04c 31bd 4017 8c3d cce9 043e
000003e0: aa8e 373d c119 e5bd 2cf5 ec3d 81e2 8c3d
000003f0: d962 443d 4d50 963c 5a6a 963e 2107 2fbe
0.07377018 0.039565444 0.13456254 -0.15831263 0.06635581 -0.12541084 0.045790553 -0.13167664
0.21625574 0.2932698 0.24652863 -0.00095480226 -0.1209261 -0.053938583 -0.017154666 0.18224652
0.0325015 -0.01884763 0.14386421 0.20220925 0.07870759 0.11817344 0.078374505 0.15694275
0.18455333 0.14837494 0.057705827 0.054572783 0.087136 0.009869607 -0.11186884 -0.07748955
-0.068990216 -0.15649046 0.09784178 0.040291123 0.120791346 0.27651298 0.14689332 -0.14672853
-0.07977441 0.14637257 0.010281714 0.102200724 0.0947124 0.073777005 0.013195932 0.05055389
0.071844086 0.05729537 0.21575092 -0.062878914 0.0948746 0.03412512 -0.0033071314 -0.001271325
0.040133767 -0.040941723 0.16467464 0.14999901 -0.04711074 0.38555264 0.011973673 0.11310299
0.06431253 0.036429778 0.041997932 -0.1324789 -0.069805436 0.025706446 -0.009037247 0.08747672
-0.00222616 0.049519382 0.13554966 -0.052465275 -0.031937655 -0.062822014 -0.16630289 -0.0057080155
-0.11770341 -0.2694234 0.20292246 -0.053158835 0.1587603 0.3910487 0.18827824 -0.09770967
-0.21281375 0.05167443 0.050117757 0.02793776 0.11046803 0.06457256 -0.097463444 0.07814865
-0.004765705 0.054103073 0.002229676 0.19678114 0.120340176 -0.0839821 0.08595797 -0.06372125
0.07251583 0.15479037 0.14967714 -0.034939278 0.10125963 0.04222851 0.09039145 0.2873656
0.08085363 0.07171112 -0.1457351 -0.17476189 -0.09725478 -0.01984916 0.09217777 0.048564147
0.2571201 0.05095826 0.07947798 -0.18136522 0.1934727 -0.03317529 0.12647279 -0.2661499
0.2096491 0.010522722 0.016835606 -0.0057166354 -0.11329924 -0.11636674 -0.12981792 -0.08478963
-0.36293963 0.03684894 0.070816755 -0.20730618 0.23414575 0.041277602 0.0325187 0.19419609
-0.012288245 0.03929194 0.16702603 0.22172552 0.082110405 -0.20035139 -0.01136712 0.061620478
0.033176217 -0.0015706551 -0.03895122 0.11690419 0.092248194 -0.12258382 -0.08030555 0.042711757
-0.011869912 0.1435694 -0.008782231 -0.22238508 -0.37427872 0.14689079 0.31984404 0.19141467
0.32944757 0.17560555 -0.20779042 0.065695785 0.034034673 -0.13404882 -0.042162742 -0.116980106
0.09613076 -0.188897 0.039397437 0.27002382 -0.18996842 -0.12686287 -0.09761573 -0.106150284
-0.103044495 -0.23273689 -0.11256934 -0.08350354 -0.09371858 -0.030561952 -0.07056563 -0.44158843
-0.19382975 0.15565768 -0.10565119 -0.10063687 -0.15315762 0.18545288 -0.09560419 -0.1625098
-0.11597968 -0.013641182 -0.16309746 0.007883869 0.18217643 -0.117210045 -0.257303 0.3720109
-0.118247874 0.11748181 0.1870307 0.054247484 -0.11493401 -0.30614573 0.07474797 0.055550624
0.15968649 -0.13722903 0.056630816 0.06078975 0.3429695 0.10769371 -0.1665999 -0.03206125
0.0021118035 0.04053335 -0.27693886 -0.12875777 -0.055442475 -0.025825031 -0.035887953 -0.057390593
0.2550212 0.018532064 -0.038727675 0.20723724 -0.001482463 0.38626295 0.033325005 -0.078032486
0.053397775 -0.12177242 0.016966663 0.15634039 -0.1297434 -0.043286145 0.06840372 0.12979811
0.04481379 -0.11186553 0.115702 0.0687914 0.04794583 0.018348837 0.29378015 -0.17092563

lstm.weight_hh_l1 f4 [512, 128]
00000000: 35d3 3e3d 93f4 19be a889 21be cfbc abbd
00000010: 4cc4 91bd 2990 7d3b b3c2 113e 7ab1 b63d
00000020: 0446 bcbe c98b d4bc 4c2c 0f3e cc90 143e
00000030: 69f7 8e3c f2b3 75be 1acc 5b3e a5f6 3bbe
00000040: 7515 dabd 94e9 d8bd 1c02 a0be bbdf 08bd
00000050: 3923 783c ca42 57be a77f acbb 0fb5 f03d
00000060: 442d fd3d ec8e 45bd 23d9 a93d 82c0 e5be
00000070: 095c eebd 7988 d03d c8bc 2ebe 5396 2d3e
00000080: 5c34 433e d576 863e 0889 113e 7886 383e
00000090: c3c3 51bd 0d6f 5e3b 282b 4f3e 3d91 e13d
000000a0: 83fc d73d d7a0 0e3e 347f 13bd 60b3 583e
000000b0: 7ee8 2dbc 81cc 44be 877a 8abd d33e 293d
000000c0: bb89 38bd c333 383d b08d a23c f756 1abe
000000d0: 1103 b0ba 7e0b 803d 7df9 70bd c461 ea3d
000000e0: 0c76 8e3e dc98 11bd 02e3 b8bd 2369 32be
000000f0: 5aa3 453e 698f 413e 3716 e1bc 7780 edbd
00000100: 3295 d93c 755f 52be e9d0 cabc 9506 3c3e
00000110: 5c5a 17be 3a7e ab3d 79d9 aebd dba0 dcbd
00000120: ef84 1c3e 2e6d 403d 4f04 33be c47b f5bd
00000130: 865c 913d d81c 2f3d d5a9 b2bc e207 06be
00000140: 8da0 12be 56e4 04be cf1a ccbb 3da0 1abe
00000150: 1e05 993d 5f91 05be f9da 433d ad56 0a3d
00000160: a029 e83d 6202 7abe 1339 593d 64e8 f6bd
00000170: 5fcf 133e bc90 6bbd 1a07 d7bd 2899 dabd
00000180: b510 513c 0e55 353e fef6 633d 3f75 e3bc
00000190: 5cea 84be 02f8 1e3d 985b 71ba 0d43 063e
000001a0: 3c15 4d3e fcf3 66bd 1126 3a3e 81d9 fd3b
000001b0: 12d2 0cbb 0222 c2bd 8b49 a63e 9df8 0dbd
000001c0: e2b9 343e dfb4 8ebe 238f f3bc cf33 383e
000001d0: 5760 543c 2010 b93d 9e0c 1bbe d90b debd
000001e0: 6a45 443e a8b6 27ba bd94 91bd de33 f83e
000001f0: 15bc c0bb 5b3c 1c3e 6a38 4bbc c519 28bc
00000200: e173 aabd 3df6 c8bc 5cbe 92bd 27ae f6bc
00000210: b3da f73d e2a0 163c 9811 ef3d f8b0 fdbd
00000220: 49d9 e73d 5101 91bc f7e3 d8bd 147c 4d3d
00000230: 5863 3f3e a059 983c f5ae f73d 294c 243d
00000240: 22b3 f23d e482 6e3c 179c 62bd 49dc 8ebe
00000250: 56de 833e 2eae 28bc f0dd 1f3e 0660 e9bb
00000260: 4b3c dfbd e6e0 30be 464a e43d e22a 0f3e
00000270: 4e09 4c3d 8ab7 f43c e7d9 2cbe cb34 e4bc
00000280: e9a3 13bd 6cb0 e2bd dc0d 62b9 96eb a9bd
00000290: 8f77 b6bd e2a5 a03e 82da 963d 6d1a 1fbe
000002a0: 4dd1 3e3d 4960 6a3e 1c32 7dbd 1e3a 0d3e
000002b0: d7cd 4b3d 7653 8bbd 94cd 163e 6f65 913d
000002c0: 584f 423e 6656 35be bdf5 94be 6c42 253e
000002d0: 7e96 d8bd 837e 16bc ab15 86be 69bc 693d
000002e0: 8b39 483e 6677 3cbe b40b 493b 3e0e bf3d
000002f0: 729a 04be c017 2dbb 3a28 a13d 51d9 8a3d
00000300: 307b 86bc abdb bbbd edad 833e c500 963c
00000310: 85aa 063d c815 663d d5bf 313e 7100 183e
00000320: 4563 4cbd 4a32 683d b836 cd3d ecbe 73be
00000330: 7ab0 02be b3d8 94be 245d 123e 5ac1 bebd
00000340: aa06 223e 54a1 393d c872 b4bc 63eb 6dbd
00000350: be82 5fbd 92d1 783e 7765 8d3d 690c bcbd
00000360: 3b14 cdbd efbd 4a3e 6878 31be c2f2 c93d
00000370: 79dd eebd 2bc9 303d 3a0d c2bd 3c29 c23d
00000380: 7107 bc3d 964c de3d a8e3 4fbe bc0c 353e
00000390: 2290 1f3d 2ddd 0dbd 9a12 173c 55fd 063d
000003a0: 4073 33be 707c 1dbe bd16 4e3e 706b 5d3b
000003b0: b0a2 8d3d 1c26 b63a 4f40 f53d 6225 a4bd
000003c0: 2f26 323d 3bc4 05bd 0625 d93d 825b 953d
000003d0: a835 093d e5cd 88bc 83e6 e63c 2589 b43d
000003e0: e033 babd bf36 b4bb 563b 68be a43f 443d
000003f0: 8852 e13d 30ff 9bbd c187 6d3e 3e3e 58be
0.04658814 -0.15034704 -0.15775168 -0.08385622 -0.07117519 0.0038690662 0.14234428 0.0892057
-0.36772168 -0.025945561 0.13981742 0.1450836 0.017451959 -0.23994425 0.21464577 -0.18355806
-0.10648624 -0.105914265 -0.3125161 -0.03341649 0.0151451165 -0.21021572 -0.005264241 0.11753284
0.12362149 -0.048232004 0.08293369 -0.44873434 -0.11638648 0.1018228 -0.17064202 0.16951875
0.19062942 0.26262537 0.1421243 0.18020046 -0.051212084 0.0033940703 0.20231307 0.1101403
0.1054621 0.13928543 -0.036009982 0.21162176 -0.0106145125 -0.19218637 -0.067616515 0.04131968
-0.045053225 0.04497124 0.019842952 -0.15072237 -0.0013428648 0.06252192 -0.05883168 0.114444286
0.27824438 -0.03554617 -0.09027673 -0.17422919 0.19300595 0.18902363 -0.027476413 -0.11596768
0.0265604 -0.20544226 -0.02475782 0.18361886 -0.14780563 0.08373685 -0.08537573 -0.10772868
0.15285085 0.046979122 -0.17482112 -0.11986497 0.070977256 0.042752117 -0.021809498 -0.13088945
-0.14319058 -0.12977728 -0.006228782 -0.15100189 0.07471679 -0.13043736 0.04781625 0.033774067
0.11336064 -0.24414971 0.053032946 -0.12056044 0.14434575 -0.057511076 -0.104994014 -0.106737435
0.012760331 0.17708227 0.055655472 -0.027765868 -0.25960052 0.038810737 -0.0009207069 0.13111515
0.20027632 -0.056385025 0.18178584 0.0077468758 -0.0021487516 -0.09479143 0.32477984 -0.034660924
0.17649034 -0.2787237 -0.029731339 0.17988513 0.012962422 0.09036279 -0.15141532 -0.108421035
0.19167104 -0.00063977623 -0.07108448 0.48477072 -0.005881796 0.15257399 -0.012403587 -0.01026005
-0.083228834 -0.024531478 -0.071652144 -0.03011234 0.121022604 0.009193631 0.116732776 -0.1238727
0.11320741 -0.017700823 -0.10590356 0.05016716 0.1869024 0.018597424 0.12093917 0.040111694
0.11850573 0.014557574 -0.05532464 -0.2790244 0.25755566 -0.010295434 0.15612006 -0.0071220426
-0.10900172 -0.17273292 0.11146979 0.13981202 0.04981356 0.029872674 -0.16879998 -0.027857205
-0.03604499 -0.11068806 -0.00021558203 -0.082968876 -0.08909523 0.3137656 0.07365896 -0.15537424
0.046586324 0.22888292 -0.061815366 0.13791701 0.04975685 -0.06803028 0.1472686 0.07099425
0.1897558 -0.1770874 -0.29093733 0.16138619 -0.10575579 -0.009185436 -0.26188406 0.057064448
0.19553201 -0.18404922 0.0030677142 0.09328888 -0.12949541 -0.0026411861 0.07869001 0.06779731
-0.016416162 -0.09172758 0.25718632 0.018310914 0.032877464 0.056173116 0.17358334 0.14843918
-0.04989936 0.056688584 0.100202024 -0.238033 -0.12762633 -0.29071578 0.14293343 -0.09314223
0.15822855 0.04531987 -0.022027388 -0.05808581 -0.054568045 0.24298695 0.069041185 -0.091820545
-0.10013624 0.19799016 -0.17331088 0.098607555 -0.11663336 0.0431606 -0.09475179 0.09480521
0.09181107 0.10854451 -0.20301688 0.17680639 0.038955815 -0.034634758 0.009220744 0.03295644
-0.17524433 -0.153795 0.20125861 0.0033785962 0.06915796 0.0013896856 0.119751565 -0.08014943
0.043493446 -0.032657843 0.10602765 0.07292844 0.033498436 -0.01669974 0.028186088 0.08815221
-0.090919256 -0.0054996903 -0.22678885 0.047912255 0.1100207 -0.076170325 0.23196317 -0.21117494

lstm.bias_ih_l1 f4 [512]
00000000: 1273 a8be dcb2 f2bc 77f6 ae3d 4797 153e
00000010: db1e ccbe 4ecc 2fbd 8fa6 2cbe 1c19 2c3e
00000020: 28fc 9d3e 836d e93c 1fe2 08be 5166 12bd
00000030: 40ba 73be 7b34 cabc 9aa1 18be 68dd 9abe
00000040: c811 a9bd d5ce eebe b431 c2bc 403f cabe
00000050: 33a7 54be d7e9 583d 31be c4bd 3d6c c3bc
00000060: 759c d7bc 3723 68bd 6c2f eabd 0b1d f03c
00000070: 8ad3 b4be a2fa 89bd 2c8e 1239 2c4c 9cbd
00000080: d1c4 27bd 67ee b63c 9966 dfbd 9c9f 52be
00000090: fdfb 86bb 7fd6 97be e548 bebd 6c1d da3d
000000a0: 857c 373c 1445 dfbe 8062 adbe 62c0 cabe
000000b0: 3027 0b3e 4fe7 86be ae15 58be e616 a5bd
000000c0: 0482 c5bd f9be 1e3e f5d9 9ebe 83bc 4dbe
000000d0: 7044 5dbc 2726 00be 29f8 93bc 19fa b3bd
000000e0: 6b96 11be 89cb 91be ada4 23bc 6eab 23be
000000f0: e13e 9ebd f190 043d 6a07 ebbd 7565 67be
00000100: 339d c7bd 6136 f3bb 5175 60be aeb3 6abd
00000110: 8d93 3c3b 30db d7bd 75d6 3abd e20b 27be
00000120: 6281 d13d a681 23bd 410f 75bd 41d1 2dbe
00000130: 712a 453e 87a1 9cbe 6821 13bd ea7d 01bd
00000140: fb06 19be 18be cabe ad7b 98bd edfc fa3d
00000150: 647a a1be 4bf8 46bd a6ec d13d d590 ebbd
00000160: 11d3 6ebc 198f 853d 98d8 95be 2463 b9be
00000170: 1fe1 f83c 69af aebd 659e fdbd 8cc7 833c
00000180: 7f61 d73d f886 703d 79e9 cc3c 58fc f0bd
00000190: 28c4 253d 3131 9b3d ca77 b03c 589f 343e
000001a0: ae29 08be 87ce 31be 7e8f b0be bd3a 2cbd
000001b0: 94cd e53b e96f febc 8a3e 92bd e88b 943d
000001c0: eaae 253c 1303 adbc d6b8 3c3b ed90 3dbe
000001d0: 9560 fdbd ebb7 3e3d 1bab f73d f71d f9bd
000001e0: 4d4d e1be 68ef bebe f531 7bbe 9fd6 733d
000001f0: a42a 20be 7706 c33c c1ab 0e3e 9992 293e
00000200: 698c a73e 2d77 043d 79ac 793d 4bad 2cbc
00000210: 3500 ad3e bf08 803e 0fff 993e 6399 833e
00000220: 3719 09be dcfc f0bd 8342 5e3b 4b3c 943e
00000230: 4871 cb3d eda7 b23e bddb 8fbd f4e8 ec3e
00000240: 8aff c9bd b653 9b3e 49a2 913e e991 993e
00000250: b558 193f c7c2 133e 1ea8 4f3d 44d7 123e
00000260: 7de2 6a3d d3ef a43e 6cf2 7c3d 7229 003e
00000270: 1047 973e e13f 823e a30c 953d 5569 583e
00000280: a2ac 253e bc53 563d a636 4d3e a275 163e
00000290: 3d52 9a3d 59ad f63e 5173 003e 203e 46bd
000002a0: c96e 063e b983 dc3e 32f9 f23e 68ea 053f
000002b0: 69d3 f93d 7bf3 8a3d 7e28 ad3e d4a5 c73e
000002c0: 5d07 4d3d 620f 863c 8c9b 983e 1a50 a53d
000002d0: 2fe2 4b3e 824b 983e de3e 143e 4698 573e
000002e0: 20d2 f63e 45e8 893e 6a78 3f3e 03b6 0d3e
000002f0: c3fc 053d 2d4c 023d 873d dd3d 591f 053f
00000300: 012f 753e 6a38 6a3d 467b d43e 95fd 1d3e
00000310: c313 833d 50b6 f53d f583 edbb a1e0 b03e
00000320: dde2 503e 7929 4a3e 6c6a 4c3d 0c9a 983d
00000330: 6e21 cabc f049 c03e f7b9 263a a6c5 883e
00000340: 52a4 2abd afbd b63e b030 7d3e 1e9f 02bd
00000350: d9f5 cd3e 6c2e c03d e821 3d3d bfae 9c3e
00000360: ec69 793e f40c b0bc 72c7 0c3f 37f4 a83e
00000370: 8972 993e 99db c23c 2a81 ca3e a122 8b3e
00000380: 4874 fbbb 17b0 a83d 89b8 853d bf6b 4d3e
00000390: 67f1 4e3d 8162 8c3e ff1a 733e 03c1 b03e
000003a0: 5f84 0c3c 3481 163e e0b2 363e 0325 10bb
000003b0: 0a47 623d f660 9d3c 9a1a 74bd 0793 763e
000003c0: a7c7 51bd bea5 063e 6943 4a3e 004b af3e
000003d0: c1f3 df3e 9f7b 2c3e 28a5 f13d 10af 603e
000003e0: bd8e d63e e8cc b73e d0cc a33e 12dd 44bd
000003f0: 5959 643d c800 8bbd 76dc 34bc 9c0b 0fbe
-0.32900292 -0.029626302 0.08543103 0.14608489 -0.3986729 -0.04291945 -0.16860412 0.16806453
0.30856442 0.028494602 -0.13367508 -0.035742108 -0.23801517 -0.024683228 -0.14905396 -0.30247045
-0.08255345 -0.46642175 -0.02370534 -0.3950138 -0.20766906 0.052957382 -0.09606589 -0.023855323
-0.026319722 -0.05667421 -0.11434826 0.029310724 -0.35317641 -0.067372575 0.00013976608 -0.07631716
-0.040959183 0.022330476 -0.10908241 -0.20568699 -0.004119395 -0.29655835 -0.09291247 0.10650143
0.011199121 -0.4360739 -0.33864212 -0.395999 0.13589168 -0.2634835 -0.2110202 -0.08061008
-0.09643939 0.15502538 -0.31025663 -0.20091443 -0.013505086 -0.12514554 -0.018062668 -0.08787937
-0.14217536 -0.28475598 -0.009987992 -0.15983364 -0.07726837 0.03236479 -0.114760235 -0.22597297
-0.0974678 -0.007422254 -0.21919753 -0.057300262 0.002877447 -0.105398536 -0.04561468 -0.16313127
0.10229756 -0.039918564 -0.059829 -0.16974355 0.19254471 -0.30591986 -0.03592053 -0.03161422
-0.14944069 -0.39598155 -0.07445464 0.12255273 -0.3153869 -0.048576634 0.10250215 -0.11502234
-0.014576689 0.06521434 -0.2926681 -0.3620845 0.030380784 -0.085295506 -0.12383727 0.016086362
0.10516643 0.058722466 0.025013672 -0.11766881 0.040470272 0.07577742 0.021541495 0.1763891
-0.1329715 -0.1736394 -0.34484476 -0.042048205 0.007013032 -0.031059222 -0.07140835 0.072532475
0.010112504 -0.02111963 0.0028796694 -0.18512316 -0.12371937 0.046562117 0.12093183 -0.121639185
-0.44004288 -0.37292027 -0.24530776 0.05953085 -0.15641266 0.023806794 0.13932706 0.16559829
0.32724312 0.032340217 0.0609555 -0.010539363 0.3378922 0.25006673 0.30077407 0.25702962
-0.13388525 -0.11766979 0.0033914156 0.2895225 0.09933716 0.34893742 -0.070243336 0.4627148
-0.09863193 0.30337304 0.28444126 0.29994133 0.5990098 0.1442977 0.05069744 0.1433993
0.057344902 0.3221422 0.06175463 0.1251581 0.29546404 0.2543936 0.07277801 0.21133931
0.16179135 0.05232595 0.20040378 0.14693311 0.07535217 0.4817913 0.1254399 -0.04839909
0.13128199 0.43069246 0.47455746 0.523108 0.121985264 0.067847215 0.33819956 0.38993704
0.05005585 0.016364757 0.29806173 0.08071919 0.19910501 0.29745108 0.14477107 0.21054181
0.48207188 0.2693502 0.18698278 0.13838963 0.032711755 0.031810928 0.10802751 0.5200096
0.23943712 0.057182707 0.415003 0.15428765 0.064002536 0.11997664 -0.0072483965 0.34546378
0.20399041 0.19742383 0.04990618 0.07451257 -0.024674144 0.3755641 0.00063601084 0.26713294
-0.041660614 0.35691592 0.24725604 -0.031890027 0.4022663 0.09383854 0.046174914 0.3060207
0.24356812 -0.021490552 0.5499183 0.3299882 0.29970196 0.023786353 0.3955167 0.27174857
-0.007673774 0.082367115 0.06529338 0.20060633 0.050523188 0.27418903 0.23740767 0.34522256
0.008576482 0.14697725 0.17841673 -0.0021994717 0.05524353 0.019211274 -0.05959568 0.24079524
-0.051215794 0.13149163 0.19752277 0.34236908 0.43740657 0.16844033 0.11799079 0.21941781
0.41905776 0.3589852 0.31992197 -0.04806239 0.05574927 -0.067872584 -0.01103889 -0.13969272
